model/trained_net.pt (torch_old, 8703 bytes, 14 tensors)

fc1.weight f4 [30, 18]
000000 8d b0 29 be 62 8e ce bd ff 2b 0b 3e 04 6e 6d be
       -0.16571255 -0.10085751 0.13591002 -0.23186499
000010 e1 6c c3 bd fe b8 3a 3e 70 af 91 bd a5 1c ff bd
       -0.095422514 0.18234631 -0.0711354 -0.124566354
000020 31 8b 8c bd 85 4d ac be 90 ad d3 bc 39 9f 05 3e
       -0.06862486 -0.33652893 -0.025839597 0.1304902
000030 04 83 1a be e7 44 7a 3c af 7e 7d bc d4 9f c0 be
       -0.15089041 0.015275217 -0.015472098 -0.3762194
000040 72 1e 8d 3d 32 c6 48 3e fb 56 51 be c2 fb 90 be
       0.068905726 0.19606856 -0.20443337 -0.28317076
000050 c0 57 ce bd fa 30 81 bd dc ea bd be 81 7d 9a be
       -0.10075331 -0.0630817 -0.37093246 -0.30173877
000060 99 12 b5 be 0b 31 8d be 9a 2b 3b 3e 92 5a 29 bd
       -0.3536575 -0.2757648 0.18278351 -0.04134614
000070 af e3 2d 3e a8 8f 11 3b 7e 24 7e be b0 a1 b1 be
       0.16981386 0.002221087 -0.24818608 -0.3469367
000080 cd 03 bb bd 61 d4 8e be 54 e0 ed 3c ef 93 19 bf
       -0.09131584 -0.27896407 0.029037632 -0.59991354
000090 40 53 13 ba 7a e2 9e bd 85 3c 0c 3e 47 2c 5a 3e
       -0.000562001 -0.07758041 0.13694961 0.21305953
0000a0 06 fa 6d 3e 69 85 cf bd 28 c0 e6 bd 81 e1 bd 3d
       0.23239908 -0.10132868 -0.1126712 0.09271527
0000b0 aa 38 95 bd 6c dc 7e bc 7a 85 98 3e 66 d2 6a be
       -0.072861984 -0.015555482 0.29789335 -0.22931823
0000c0 96 fa d1 3d d5 08 1c 3d d2 a6 0d be 7d d8 ff bc
       0.102528736 0.03809436 -0.13833168 -0.03123116
0000d0 c8 19 60 bd 5c 03 37 3e a8 d5 51 3e 41 21 65 be
       -0.054712087 0.17872375 0.2049166 -0.22375967
0000e0 7b 8f 5d be 90 e1 61 3c 75 34 41 3d 47 79 46 3d
       -0.21636765 0.013786688 0.047169168 0.048455503
0000f0 5a 4e 67 be bf e2 82 be 6c 2c 1d be ae a6 7d 3b
       -0.22588482 -0.2556362 -0.15348977 0.0038704085
000100 51 8a 47 3e 4b 9f 82 3e d5 6c 00 3e d0 72 c1 bc
       0.19486357 0.25512156 0.12541516 -0.023614317
000110 60 ba 26 be 73 a4 e1 bd 04 16 2e be e3 59 8e bd
       -0.16282034 -0.11017694 -0.17000586 -0.06950738
000120 26 d5 a1 bd bb bd 08 be b5 5d 57 3e b1 26 3a 3e
       -0.07901983 -0.13353626 0.2103184 0.18178822
000130 d8 af 6a bd 39 76 f6 be 23 f2 3b 3e f6 38 38 3b
       -0.057296604 -0.48137072 0.18354087 0.0028110123
000140 ae f0 06 3b c6 e1 b6 bd ea fb 8b bd b0 54 8e 3e
       0.0020590234 -0.089297816 -0.06835158 0.27798986
000150 61 de 66 3d e2 d0 12 bd 72 eb 99 3d 31 d0 87 bd
       0.05636442 -0.035843737 0.07515611 -0.06631506
000160 93 ea fc be f8 a0 22 be 58 e6 c8 be 92 89 e6 be
       -0.49397716 -0.15881717 -0.39238238 -0.45026833
000170 00 9d c1 bc c0 aa 71 3b bf 47 dc 3e 8c 8b d8 3e
       -0.023634434 0.0036875457 0.43023488 0.42293966
000180 ee df 4e 3d 9d 80 a3 be e1 13 e3 bd 44 09 6a bc
       0.050506525 -0.31934062 -0.11087776 -0.014284436
000190 a0 60 92 3d fb d1 54 3e 12 e3 30 be 9f b2 07 3e
       0.07147336 0.20783226 -0.1727412 0.13251732
0001a0 a5 75 dc 3c 2e c4 b8 bd ad e2 11 3e 5d e0 8d be
       0.026911566 -0.09021793 0.14246626 -0.27710238
0001b0 0b e0 55 3f a1 59 bf 3e b8 a3 9c bd a0 e7 3b 3c
       0.8354499 0.3737307 -0.076484144 0.011468798
0001c0 01 67 1a bf 3b 8d 0f be 41 42 41 3d 3c c8 65 3e
       -0.6031342 -0.14018719 0.047182325 0.22439665
0001d0 04 2a 7e 3d b2 3e 78 3e 63 62 47 be 10 95 64 be
       0.062051788 0.24242666 -0.19471125 -0.22322488
0001e0 6c 88 25 3e 95 8c c9 bc 6e 5d df bc 9b 92 78 3c
       0.16165322 -0.024603168 -0.02726623 0.015171672
0001f0 f6 c5 c6 bd 0f 5f 75 bd 94 b7 c0 be d9 db 11 ba
       -0.09705727 -0.059905108 -0.3764006 -0.0005564071
000200 2c 59 99 bd a0 c0 90 3b d8 89 42 3e b4 f1 72 be
       -0.07487711 0.004417494 0.18997896 -0.23725015
000210 2c 05 15 bd 63 04 ec bc 75 e8 90 3d 69 1c f3 3c
       -0.036381885 -0.028810686 0.07075588 0.029676633
000220 6e 82 d5 be ed 7b 30 3e 9f 69 f3 3d 6c 51 c4 3d
       -0.41701072 0.17234774 0.1188538 0.095858425
000230 3c d3 17 3e e6 95 a0 bd 5d 6c 21 3d 07 8a 2a be
       0.14826673 -0.07841091 0.039409984 -0.16654216
000240 52 d2 91 3d f7 8f 99 3d 2a d6 ac bd 8a 5a 0c be
       0.071201935 0.07498162 -0.08439286 -0.13706413
000250 8d 77 2c be 76 66 86 be 2c 2a b3 3d 73 c4 0c 3e
       -0.1684248 -0.26250046 0.08748278 0.13746814
000260 78 f2 ad bc ec 20 28 3c cb 1b 07 3e cd 3b c7 bd
       -0.021233782 0.010261755 0.13194196 -0.09728203
000270 53 49 8f bd 8f 18 34 3e de 18 0d be ec 31 1e 3d
       -0.06996407 0.17587493 -0.13779017 0.038621828
000280 14 ff 32 3d b0 97 97 3e 95 5d 60 be a8 68 d5 3e
       0.043700293 0.29607916 -0.21910699 0.4168141
000290 78 ea fa bc f6 9d 67 be c2 a8 33 be eb 67 9d be
       -0.030629382 -0.22618851 -0.17544845 -0.30743346
0002a0 00 c8 e7 3d 8d fa a1 3d cc 24 44 be 5d dc b5 ba
       0.11317444 0.07909117 -0.19154662 -0.0013874877
0002b0 f5 ee 80 be e5 c4 af 3e e5 48 0c 3e fb 6a 84 3e
       -0.2518231 0.34329906 0.13699682 0.2586287
0002c0 5a 37 94 3d e0 f2 16 be 44 eb f2 3d a0 99 09 3c
       0.0723712 -0.14741087 0.118612796 0.008398443
0002d0 22 d2 20 3d 26 a6 c4 bd 5c f7 45 3d de a6 c2 3d
       0.0392629 -0.09602003 0.048331603 0.09504484
0002e0 a0 c7 7d 3c 37 a2 f0 bc 08 90 80 be 6d c3 65 3b
       0.015489489 -0.029374225 -0.25109887 0.003505911
0002f0 77 a1 06 3e c1 71 78 be 24 5e e1 3d 55 7c f0 bd
       0.13147531 -0.24262144 0.11004284 -0.117424645
000300 a4 13 12 3e 78 e9 91 3d e5 99 04 3e b4 70 13 be
       0.14265305 0.07124609 0.12949331 -0.14398462
000310 c6 78 0c 3e 19 13 16 bd 29 bd 82 3d a8 19 46 bd
       0.13717946 -0.036639307 0.06383736 -0.04836431
000320 73 e5 1d 3e 04 f9 45 3d ee 05 62 3c ca 37 65 3e
       0.15419559 0.048333183 0.013795359 0.22384563
000330 a4 7b 65 be 42 bb 67 3b 75 37 e9 bd c5 de 32 be
       -0.22410446 0.0035359417 -0.11387531 -0.17467792
000340 f7 72 d2 3d 1b 75 0a be 11 5a 31 3e 70 15 c9 3d
       0.10275834 -0.13521235 0.17319514 0.09818542
000350 fc b1 7d bb bb 08 d3 bd 4a 77 1d bd 5c 84 82 bd
       -0.0038710823 -0.103043996 -0.03844384 -0.06372902
000360 88 11 58 3e 0c 32 de 3d aa b9 52 be a6 c5 a2 3d
       0.21100438 0.108493894 -0.20578638 0.07947855
000370 54 59 dd bc 83 90 c4 bc a5 82 bf bd f9 e5 a6 3d
       -0.027020134 -0.02399469 -0.0935109 0.081493326
000380 a5 2b 2e 3e 23 12 23 be 61 f8 92 3e da 9e fc be
       0.17008837 -0.15924887 0.28705123 -0.49339944
000390 6b b1 1e 3c ea 3b e4 3d df d4 1e be ce e9 40 be
       0.009685854 0.1114424 -0.15510891 -0.1883919
0003a0 26 74 ae 3d aa 49 05 3d 85 f7 22 3f 0c a4 8d 3e
       0.08518247 0.032540955 0.63658935 0.2766422
0003b0 a8 d8 f1 3c 80 30 c8 bc cf da d0 be de 19 ac bd
       0.029522255 -0.02443719 -0.40791938 -0.08403371
0003c0 57 a0 b9 3e a3 2d d3 3e a6 db a9 3d fd 29 05 bd
       0.36255142 0.41245756 0.08293848 -0.032510746
0003d0 4a 85 92 3d 61 17 90 3d 51 6e 84 3e 29 8f ec 3d
       0.07154329 0.07035709 0.25865415 0.11550743
0003e0 57 c0 c4 3d ea 85 d9 bd 84 4e d9 bd a2 8d ab be
       0.096069984 -0.10621245 -0.10610679 -0.33506495
0003f0 ad 12 f7 be 6c 22 9c bb d8 f5 25 be d1 3d ee bd
       -0.48256436 -0.0047648456 -0.16207063 -0.11632884

fc1.bias f4 [30]
000000 04 73 3f be 30 fe e9 bc 9d 06 06 3e 44 96 5c 3d
       -0.18696219 -0.028563589 0.1308846 0.053854242
000010 22 bc a9 3d 7e 1f 91 3d f6 a6 90 3d 68 07 dd bc
       0.082878366 0.07086085 0.07063095 -0.02698107
000020 f8 ce 5c be 33 38 17 3e 58 76 b7 3c 48 05 70 be
       -0.21563327 0.14767532 0.022395298 -0.23439515
000030 c1 14 e4 bd d5 7f 18 3e 05 58 1e 3e ee 0b 6f be
       -0.11136771 0.14892514 0.15463264 -0.23344395
000040 70 d5 f7 bc e0 17 6e bc 8b 08 3b be 3a 03 c7 3d
       -0.030253142 -0.014532059 -0.18264978 0.09717412
000050 ec 48 43 3c 26 be 94 3d 09 9b 05 3e 63 28 64 3e
       0.011919241 0.072628304 0.13047422 0.22281031
000060 0c 65 cd bd 1d 1f 6b 3e 20 34 f0 bc 7d 1c 37 be
       -0.10029039 0.22961088 -0.02932173 -0.17881961
000070 89 94 28 3e d9 d6 42 be
       0.16462912 -0.1902727

fc1_bn.weight f4 [30]
000000 bb 49 41 3f d8 6b 63 3f 49 28 75 3e f6 31 72 3e
       0.7550313 0.8883643 0.23941149 0.23651871
000010 1b 04 dc 3e 64 07 35 3f aa 5f 0c 3f 01 a6 ff 3e
       0.42971882 0.707144 0.5483347 0.49931338
000020 da 29 79 3e b9 cb 24 3f 25 21 41 3e 3b 87 d0 3b
       0.24332371 0.64373356 0.188603 0.006363777
000030 2f c0 88 3f c4 58 b8 3f aa cf f2 3e 5c b7 15 3f
       1.068365 1.4402089 0.4742406 0.5848291
000040 16 ab 46 3f 19 1a 09 3f 4a 22 28 3f 07 aa 1a 3f
       0.77604806 0.53555447 0.6567732 0.6041569
000050 f8 cb cf 3e d5 b0 05 3f c7 5e 65 3e 96 cc 0f 3f
       0.40585303 0.5222295 0.22399436 0.5617155
000060 02 ca b9 3e 5f ed 09 3f 4d 16 f7 3d ef d2 33 3f
       0.36286932 0.53877825 0.120648004 0.70243734
000070 e7 3d f4 3e df 01 35 3f
       0.47703478 0.7070598

fc1_bn.bias f4 [30]
000000 09 8f 83 bd 73 16 f1 3e 7e c5 a7 bd 30 80 ca 3d
       -0.06423766 0.4708744 -0.081919655 0.09887731
000010 da a2 ac be 04 1e 88 3e a3 94 85 3d 94 f1 47 3e
       -0.33717996 0.265854 0.06522491 0.19525748
000020 75 32 54 3e 26 57 41 bd 2c 5e 3f bd 9e fd 04 bd
       0.20722373 -0.04720225 -0.04672067 -0.03246843
000030 32 d2 ad 3e 20 d8 d7 be bd 4d 3c 3d 1b 85 40 3e
       0.3394943 -0.42157078 0.045972575 0.18800776
000040 4a da 8c 3d 58 8a c6 bc 6e 09 84 3d b7 71 72 be
       0.06877573 -0.02423589 0.06447111 -0.23676191
000050 c0 ec 36 3d b4 9a a8 bd a2 55 b1 be ce e3 fe 3e
       0.044659376 -0.08232632 -0.34635645 0.49783176
000060 16 3a a0 bc 19 a2 38 3e 5e cf c4 3c b4 27 46 bd
       -0.019558948 0.18030585 0.024024662 -0.048377708
000070 87 0c 82 bd de 3c 97 3e
       -0.06350046 0.29538625

fc1_bn.running_mean f4 [30]
000000 c0 01 28 bf b8 db c5 bf 95 ba ff bd 8f 11 8a be
       -0.6562767 -1.5457678 -0.124867596 -0.2696652
000010 ac 0b 31 be cb e8 7c bf a0 7d 34 3f 75 47 c9 3e
       -0.17289609 -0.98792714 0.7050419 0.3931233
000020 d9 6a b1 3d 44 45 ce 3f 90 e2 aa be 30 25 21 bf
       0.08662958 1.6114888 -0.33375978 -0.6294737
000030 b1 5d 69 bf d0 0d 6e 3e 24 06 9e 3e fc ea 4a 3e
       -0.91158587 0.23247457 0.3086406 0.19816202
000040 a1 7c 2e bf cc 8f ae be f4 b0 b7 bf 57 74 a8 3f
       -0.6815892 -0.34094083 -1.4350877 1.3160504
000050 6e 58 1f bf ef fd 64 bf 88 d6 b6 3f cd 22 c1 be
       -0.6224431 -0.8944997 1.428422 -0.37721863
000060 8a 03 34 3f 59 79 02 3f 75 b2 3b be e5 fb 91 be
       0.703179 0.5096641 -0.18329795 -0.28512493
000070 a7 eb 23 3f ba 66 10 be
       0.6403145 -0.14101687

fc1_bn.running_var f4 [30]
000000 ef 6a 0b 3d bb 78 96 3e a1 64 4e 3d 23 1d c9 3d
       0.034037527 0.29388985 0.050388936 0.098200105
000010 cc b4 06 3e 1d 46 71 3d 1c 41 a4 3d 8b cd 93 3d
       0.13154906 0.058904756 0.08020231 0.072169386
000020 f4 05 33 3d 98 36 b2 3d fa 92 9c 3d 04 1e f0 3c
       0.04370685 0.08701819 0.07645221 0.029311188
000030 8c 0f e4 3d fb 68 f5 3d 0e 75 ae 3d 05 01 1b 3e
       0.11135778 0.11982914 0.0851842 0.15137108
000040 bd 24 15 3e 14 e6 05 3e 7e 78 4a 3e e8 d7 ef 3d
       0.14564796 0.13076049 0.19772527 0.11711103
000050 7b 26 0f 3e 6f 4e e8 3c 8f 3e 06 3f 73 88 9d 3d
       0.13979523 0.028357713 0.52439207 0.07692041
000060 a8 e2 40 3e 58 5e 06 3d 70 4f f6 3c 45 df 0a 3e
       0.18836462 0.032804817 0.030067176 0.13561733
000070 d0 72 cb 3e 23 53 19 3f
       0.39736032 0.5989248

fc2.weight f4 [20, 30]
000000 cb 00 30 3e aa 68 31 be 2e ce 65 3e e2 ec 68 3d
       0.17187802 -0.17325082 0.22441933 0.056866534
000010 f4 1c a1 bd 62 38 12 be 14 fc 2d be 0f 78 09 be
       -0.078668505 -0.14279321 -0.16990691 -0.13424705
000020 24 b4 2b bc ba 75 84 bd 5c 72 1f bd a2 65 0d be
       -0.010479961 -0.06467767 -0.03892742 -0.13808301
000030 61 cd ce bc a9 32 b4 bd 6b d3 b0 3d 9a 40 c1 3c
       -0.025244417 -0.08798725 0.08634075 0.023590375
000040 e4 d8 c0 bc fa f7 bf 3d 02 11 16 be 75 6b 0c be
       -0.023540922 0.0937347 -0.14654925 -0.13712867
000050 31 6e 46 be 26 17 58 3e 8d f7 39 bd 60 bc 3e be
       -0.19377972 0.2110258 -0.0454021 -0.18626547
000060 d1 62 56 3e ca 95 07 3e e2 eb 8b 3d 5d 24 4f 3d
       0.20936133 0.13240734 0.068321005 0.050571788
000070 3e 23 ec 3d fe cf d1 3d 84 5c 3f be ee 15 4e be
       0.115301594 0.102447495 -0.18687636 -0.20125553
000080 cf a3 00 be 6e e0 16 be aa af 8c 3d 9c a0 5a 3d
       -0.12562488 -0.1473405 0.06869443 0.053375825
000090 cf 01 c9 bc cb e3 3e bd da b0 9f 3d 14 7e 80 3c
       -0.024536995 -0.04660396 0.07797404 0.015685119
0000a0 0f 70 dc 3d 9c 1c 1f be eb 04 cb 3d 94 0f 9c ba
       0.10763561 -0.15538257 0.099130474 -0.0011906498
0000b0 ca 8f 62 bc f5 aa 8e 3d 92 5c aa bc 27 e1 4e bd
       -0.013828227 0.06966201 -0.020796094 -0.05050769
0000c0 7f d1 3d be c0 9f 55 bd de b4 43 bb 7d 63 80 bc
       -0.18536948 -0.052154303 -0.0029862444 -0.01567244
0000d0 20 ca ca 3d 38 06 1f 3e cf 44 be 3d 39 60 5f be
       0.099018335 0.15529716 0.09290468 -0.2181405
0000e0 2f 41 e0 bd af 9d 8a 3d ce 89 bb 3d b6 35 a3 3d
       -0.10949933 0.06768357 0.091571435 0.07969229
0000f0 75 95 59 3d 52 ee cb 3c 45 95 79 3d 9a 97 bb 3b
       0.05312105 0.024893913 0.06093337 0.0057248594
000100 ff f8 1b bd 34 37 22 3d e1 9d 3b 3d 38 ce 20 3d
       -0.038079258 0.039603427 0.045804862 0.039259166
000110 6e c6 7f be 9d f0 0a be 20 d8 f4 3a c4 1d e5 3d
       -0.24978039 -0.13568349 0.0018680133 0.11187318
000120 27 86 7b bd 72 75 09 bd 11 5f 25 be 92 7f bc bd
       -0.061407235 -0.03355927 -0.16149546 -0.092040196
000130 2d 83 34 be 75 b4 13 bd 67 70 63 be f5 0e ab bd
       -0.17628165 -0.03606077 -0.22210847 -0.08352462
000140 3d 40 e6 3b bc 26 43 3e 07 e8 d5 3d 84 15 94 3c
       0.007026701 0.19057745 0.10444646 0.018076666
000150 97 50 ea bd 57 59 57 be 8e da 4d be e1 1f af bd
       -0.114411525 -0.21030174 -0.20102903 -0.08551002
000160 6f 70 de bd 28 b9 83 bd 1b ac dd 3d a6 ce 02 3e
       -0.10861289 -0.064318 0.10823842 0.12774143
000170 92 e4 5e bd 93 27 d1 bd ab 33 e6 bd b9 71 7c bd
       -0.0544172 -0.10212626 -0.11240324 -0.061631892
000180 93 37 c8 3c 04 95 3e 3c eb 31 4c 3d 60 8f ef 3a
       0.024440562 0.011632208 0.049852293 0.0018276982
000190 c4 ff a6 bc 43 db 8f bd 01 52 12 be 70 ee a7 bc
       -0.02038563 -0.07024243 -0.14289095 -0.020499438
0001a0 80 06 f6 3d 86 74 73 be 97 6b a8 3d 69 39 36 bd
       0.120129585 -0.23774919 0.08223646 -0.044488344
0001b0 83 35 3b 3e c9 26 9d bd 04 86 1d 3e e2 82 51 be
       0.18282132 -0.07673413 0.15383154 -0.20460084
0001c0 9a a6 a9 bd 09 48 e3 bd d1 c2 dd 3d 04 ef 90 bd
       -0.0828373 -0.11097724 0.10828174 -0.070768386
0001d0 59 cc fb 3d fb 68 ff bc d8 f1 4b bd 72 96 b0 3b
       0.122948356 -0.031177988 -0.049791187 0.005389028
0001e0 43 0c 34 be 0a c2 6b bd 71 b9 83 bd 97 4f 79 be
       -0.17582802 -0.057558097 -0.064318545 -0.24346767
0001f0 0a 4d 34 be e5 58 66 3d 42 bb 84 3d 0a 5f cf bc
       -0.17607513 0.05623712 0.06481029 -0.025313873
000200 a5 e8 1a 3d 6a 5d 5c be 49 17 37 3e 98 25 00 be
       0.037819523 -0.2152001 0.17879976 -0.12514341
000210 8d 8a 1c be 6a b8 ca bd e0 82 0f bc b2 18 2b bd
       -0.15287228 -0.098984554 -0.00875923 -0.0417716
000220 5f bc 13 bd 2e 39 0c 3d 5c d1 b9 bc af b1 e9 bd
       -0.036068317 0.03423422 -0.022682838 -0.114108436
000230 20 22 26 3d c8 05 a6 3d 04 2b be 3d f5 7d 7e bd
       0.040559888 0.081065714 0.09285548 -0.06213184
000240 82 a3 89 bd 23 e5 73 3d 4b 33 f7 3d a6 b0 af bc
       -0.0672064 0.059544694 0.1207033 -0.021446537
000250 07 e6 9e 3c 43 1e a5 3d 9b 93 26 bd 46 ff a9 3d
       0.019396795 0.080624126 -0.04066811 0.08300643
000260 03 5d 98 be 61 e6 45 3e 87 0f 40 3c 35 82 b1 bd
       -0.29758462 0.19326164 0.011722452 -0.08667413
000270 ea a9 19 be d3 80 60 be db 18 88 3d 83 e9 d5 3d
       -0.15006223 -0.21924143 0.06645366 0.104449295
000280 f6 09 23 3e 27 5b 19 3e 9a 63 03 bf 4b cb 87 3d
       0.15921769 0.14976178 -0.51323855 0.06630572
000290 4b 3b 2e 3e 24 20 1c bc a0 d0 06 bc 2c c0 65 3c
       0.17014806 -0.009529147 -0.008228451 0.014022868
0002a0 06 9e 7f 3d ae e9 80 3e a7 6c c0 bd de 90 2e be
       0.062406562 0.25178283 -0.09395724 -0.1704745
0002b0 cb 2e b1 3d f1 cb 98 be f1 15 0e bd 36 0c 9a bb
       0.08651503 -0.29843095 -0.034688894 -0.0047011627
0002c0 9a 2c 5b bc ef 8b 57 3e 47 7d 95 bd 77 13 c4 bc
       -0.013377333 0.21049474 -0.072992854 -0.023935063
0002d0 4c 9c 2b be 9e 58 29 be 50 41 0e be 11 d6 38 3d
       -0.16758841 -0.16537711 -0.13892102 0.045126025
0002e0 7c 1b 96 bc 1b 38 dc bd 43 54 d7 bd 8b 98 02 3e
       -0.018323652 -0.10752889 -0.105141185 0.12753503
0002f0 60 45 33 3d 43 91 ca 3b 6d 61 98 bc cc c7 d6 3d
       0.043767333 0.0061818673 -0.018601144 0.10487327
000300 59 13 8c 3d 70 b5 e0 3c af cb ef 3d 79 36 01 be
       0.06839628 0.027430266 0.117087714 -0.12618436
000310 fd b3 ef 3d 57 24 6c 3d 87 ca a3 bc 1b 2e de 3c
       0.11704252 0.057651844 -0.019994034 0.027121594
000320 4d 07 f0 3c 8b 0c 97 bc e8 d7 52 bd ad 4f e6 bc
       0.029300356 -0.018438598 -0.051475435 -0.028114164
000330 1d 49 a0 bd 84 57 ff 3d f8 28 31 3e 5b 05 f8 3d
       -0.07826445 0.12467864 0.17300785 0.121103965
000340 d7 ae c4 bd 83 1b 82 bd ba 2d ba bd 2c d6 ee bd
       -0.096036606 -0.06352904 -0.09090753 -0.11661944
000350 6b a0 20 3e 34 30 8a 3c 5a 02 8a be 19 c3 26 be
       0.15686195 0.016868688 -0.2695492 -0.16285361
000360 53 1a 6c bd 28 f7 d7 bc 51 6e 18 bd 14 69 14 3e
       -0.057642292 -0.02636297 -0.03721458 0.14493209
000370 ae 44 d4 3c 52 95 03 3d 99 f9 52 be 84 05 b4 bd
       0.025911655 0.032124825 -0.20603026 -0.087901145
000380 43 2a 88 3d c0 71 64 3d 3d 2f 33 3e e7 61 98 bd
       0.06648686 0.055772543 0.17498489 -0.074405484
000390 5c 3e e2 3d 93 2e ee bd d4 8a ec bd ca b1 e9 bd
       0.1104705 -0.11629977 -0.11549917 -0.11410864
0003a0 71 6a 0c be 17 52 ee 3c 0b a7 95 bd 92 60 00 be
       -0.13712479 0.029091878 -0.073072515 -0.12536839
0003b0 31 c0 6a 3d 31 89 2b 3e 18 d3 4e 3d 24 4e 72 3d
       0.057312194 0.16751553 0.050494283 0.059156552
0003c0 a2 af 04 3e 06 3e 10 bd 30 ca 80 3d f0 a3 98 3e
       0.12957624 -0.0352154 0.06288564 0.29812574
0003d0 20 2d 02 bd e7 f7 20 3e b4 41 9c 3d 89 35 18 be
       -0.031781316 0.15719567 0.076297194 -0.14864172
0003e0 df 0f 1c be e9 ee 18 be d3 eb df 3d 76 73 85 3d
       -0.1524043 -0.14934887 0.10933652 0.06516163
0003f0 8d b5 01 3e 86 7f 39 3c 26 a4 c2 bc 33 13 44 3c
       0.12666912 0.011321908 -0.023759913 0.011967468

fc2.bias f4 [20]
000000 d0 4b 86 3c 20 d2 f7 3d cc 62 13 be 40 6a 73 3d
       0.016393572 0.12100625 -0.14393157 0.0594275
000010 ce 47 ab bd f8 55 65 bd 2f d2 28 be 60 a0 2a be
       -0.08363305 -0.05599019 -0.16486429 -0.1666274
000020 d0 57 22 be 74 48 15 3e 7a 88 16 be ba 8b 0c 3e
       -0.1585381 0.1457842 -0.14700499 0.13725176
000030 48 49 04 3d 40 e0 60 3b 0e 30 25 be f3 41 b5 bd
       0.03229645 0.003431335 -0.16131613 -0.088504694
000040 73 cf e5 bd 54 00 0e 3d d4 79 0d 3e 84 1c c4 3d
       -0.112212084 0.03466828 0.13816005 0.095757514

fc2_bn.weight f4 [20]
000000 f3 bc 2b 3f 92 86 9b 3e 9c da aa 3e 77 10 1f 3f
       0.6708519 0.30376107 0.3336991 0.621345
000010 41 9c bd 3e c7 00 99 3f fc db a2 3d cb 50 96 3e
       0.37033275 1.1953362 0.07952115 0.29358515
000020 ac d6 01 3f 92 de c6 3f 45 83 64 3f de e6 82 3f
       0.5071819 1.5536673 0.892628 1.0226705
000030 15 1b b9 3e c3 91 b3 3e fc 8b c9 3f 7c 76 09 3f
       0.36153474 0.35072145 1.5745845 0.5369642
000040 9b 4d 65 3f b7 2f 37 3f 16 45 06 3f ab 82 d7 3e
       0.8957154 0.7155718 0.52449167 0.4209188

fc2_bn.bias f4 [20]
000000 5e 87 3b bf ca a6 74 3d a5 34 50 3f 87 46 ea 3d
       -0.7325343 0.059729375 0.8133033 0.11439233
000010 f7 d0 1e 3f 10 9f 2a bf de 42 11 be 44 18 6a bd
       0.62037605 -0.6664896 -0.14185664 -0.057152048
000020 1d 3e c5 3d 75 06 b7 bf 44 21 35 3e 17 d6 ca bb
       0.09630988 -1.4298846 0.17688471 -0.0061900723
000030 8c 88 1e bd 2a 9b 22 be d8 14 c8 bf dd 55 00 3f
       -0.03870444 -0.15879503 -1.5631361 0.50131017
000040 32 32 84 bc 2d 47 69 3c 1b 39 1d bf b7 85 f8 3e
       -0.016137216 0.014238161 -0.6141526 0.48539516

fc2_bn.running_mean f4 [20]
000000 3d e5 5b be aa 31 de 3c fd 9c 0a bf c2 cc a8 bc
       -0.21474166 0.027123291 -0.54145795 -0.020605449
000010 c1 4b b7 be 9e f6 f2 be a9 8f 72 be ff 22 c7 be
       -0.35799983 -0.4745378 -0.23687615 -0.38893887
000020 c2 c3 ac bb d6 83 ab be c8 cd 23 bf 1f 8f ba 3e
       -0.0052723596 -0.3349902 -0.6398587 0.36437318
000030 b8 3f a3 3e 82 8d 0c 3e 19 72 a7 be 1b e2 84 be
       0.3188455 0.13725856 -0.32704237 -0.25953755
000040 f3 5f 15 bf d2 e0 f4 3e be 8d b4 bd 60 70 78 3e
       -0.5834953 0.47827774 -0.08816098 0.24261618

fc2_bn.running_var f4 [20]
000000 04 7f 01 3e b1 2c 6e 3d 79 8d 20 3d 7e 0b 12 3d
       0.12646109 0.05814809 0.03919742 0.03565549
000010 55 b9 0d 3d 2e 5b ba 3e 7e 61 b3 3c d7 1b 93 3d
       0.034600575 0.3639769 0.021897074 0.071830444
000020 65 a2 5b 3d 08 96 f4 3e 19 e1 f6 3d 8e 6d f3 3d
       0.05362167 0.47770715 0.12054653 0.1188613
000030 5b 94 bb 3d b4 fc 07 3d 92 b7 48 3f b3 51 57 3d
       0.09159156 0.03319998 0.78405106 0.05256815
000040 c2 d6 5a 3e 22 9c 36 3e 12 50 87 3d fe 73 bf 3d
       0.21370986 0.17832997 0.06607069 0.09348296

fc3.weight f4 [9, 20]
000000 38 52 68 be 16 d8 10 3e 9f fd 08 bc 57 ea e4 bc
       -0.22687614 0.1414493 -0.008361249 -0.027943773
000010 18 8e 8e bc 30 05 23 bd 7b 0a 98 3d 5b ea ed 3d
       -0.01740174 -0.03979987 0.07423874 0.116169654
000020 47 84 cd be 50 a5 b4 ba 44 48 db bc 63 7c 78 3d
       -0.40139982 -0.0013782177 -0.026767857 0.0606655
000030 8f b9 46 3e ff 3c 23 be 98 cb 2c 3e 23 2e a3 3d
       0.19406722 -0.15941237 0.1687454 0.07967784
000040 cf 14 cd bc da 5f ee 3d eb d0 4a 3e 52 6c 2b bd
       -0.025034336 0.11639376 0.19806258 -0.04185135
000050 b8 8a 9b bb 4f db 33 3c 57 a5 50 bb 1f ea 2b ba
       -0.004746761 0.01097758 -0.0031836831 -0.0006558019
000060 44 0d 72 3b 00 be 1c bc ad d2 93 bd 42 a6 0d 3c
       0.0036934176 -0.009566784 -0.072179176 0.008645596
000070 ee 39 ff 3a f5 17 01 3d ad 72 b8 bb fe 1b eb bb
       0.001947222 0.031516988 -0.005628905 -0.007174968
000080 f8 66 af 3c 1e 46 4c bc e2 33 a3 bb 13 d3 5e bb
       0.021411404 -0.012467889 -0.00498055 -0.0034000322
000090 e5 3a 81 3c c5 68 b1 bb 92 85 eb 3a 49 39 70 3c
       0.015775153 -0.005414101 0.0017968884 0.014662095
0000a0 eb 4a d8 3c 91 1b 10 3e fc 56 b5 bd 29 d9 95 3c
       0.026402911 0.14073016 -0.088544816 0.018292027
0000b0 15 85 03 3d c5 cc 00 bd 9c 54 c2 bd c6 3e b3 3d
       0.03210934 -0.031445283 -0.09488794 0.087522075
0000c0 da 35 00 3e b1 36 e8 3b 7a 5a ce bb 24 1c a0 bc
       0.12520543 0.007086598 -0.0062974067 -0.019544668
0000d0 db 6e 8d bc 01 3f 3b bd b3 9e fc bc 77 e2 22 3e
       -0.017264774 -0.045714382 -0.030837392 0.15906702
0000e0 8b d5 79 3d 09 45 80 bd 86 47 d2 bc 88 e4 19 bd
       0.060994666 -0.062631674 -0.02566887 -0.03757146
0000f0 fb 6d 4d 3d 16 99 23 3e 85 1b 42 bd 35 01 a2 bd
       0.050153714 0.15976366 -0.047389526 -0.079103865
000100 c0 04 01 3c ce 22 a7 bc db b5 89 bd dd 67 d1 3c
       0.007874668 -0.020402338 -0.06724139 0.025562221
000110 0f b3 e6 bc dc f2 54 3b 36 72 48 3c 1a 50 ad 3c
       -0.028161554 0.0032493388 0.012234261 0.02115636
000120 de b4 f5 bc b8 0d 4d bb a0 78 a9 bc c3 91 b7 3d
       -0.02999347 -0.0031288695 -0.020687401 0.08963349
000130 c0 fe d3 3c 22 af 14 bc 81 ef 1c 3d 28 90 cf bb
       0.02587831 -0.009074958 0.038314346 -0.0063343234
000140 ff 27 73 bd 2e aa 1c 3e a2 8e 2c 3d 3e 20 6b be
       -0.059364315 0.15299293 0.042128213 -0.22961518
000150 15 f2 f6 3a c5 95 5f 3e 14 ff 19 be e4 1e 9e bd
       0.0018840457 0.21834476 -0.15038711 -0.07720736
000160 4c 22 54 bd a2 29 38 be 99 bf a2 38 fa c1 4e 3e
       -0.05179052 -0.17984632 7.76045e-05 0.20191184
000170 fa fa 60 3c a6 c7 01 be eb 56 7b bc 0d f5 5f 3c
       0.0137317125 -0.12673816 -0.015340547 0.0136692645
000180 c8 09 4e be 7a fe a4 3d 04 54 4e be 63 f1 ab bc
       -0.20120919 0.0805635 -0.20149237 -0.020989126
000190 fe c3 62 be 72 34 d1 3c 6a c7 0d 3e 79 b7 0b be
       -0.22145078 0.025537703 0.13845602 -0.13644208
0001a0 9f 1d 32 3f c5 58 63 3f a1 73 f6 ba b5 fa 80 be
       0.6957645 0.88807327 -0.0018802771 -0.25191274
0001b0 a9 6e 1e be 0a 6c 8e be 1d 4c 22 bf 22 dd 1e be
       -0.15471901 -0.27816802 -0.6339739 -0.15514043
0001c0 5e b2 71 be 79 42 84 3d 9c 3e 51 3d 47 1a 4b 3e
       -0.23603198 0.06457991 0.0510851 0.19834243
0001d0 1c f4 61 3d 8a 0d 3d 3f 4a 8f 4f 3f c8 a0 16 3c
       0.05516444 0.73848784 0.81078017 0.009193607
0001e0 4d f0 3b 3d 6d 74 60 3e fe 01 85 3c 91 ca 80 3d
       0.045883466 0.21919413 0.016236302 0.062886365
0001f0 60 07 c6 bc 32 c4 d1 3c 3a cf 01 be 58 f5 88 3d
       -0.024173439 0.025606249 -0.12676707 0.066874206
000200 3b 7b 8b bb be 81 28 bd 6d ee 5f 3b ad 61 fa 3c
       -0.0042566336 -0.041139357 0.0034169212 0.030564154
000210 c7 dd ef 3c a3 f6 10 bd 57 69 1c bc 2a 90 c2 3d
       0.029280556 -0.03539146 -0.009546599 0.09500153
000220 ff 14 3d bd 19 87 5f bc 1f 0d 4a 3d 18 4d ce bd
       -0.0461626 -0.01364305 0.04932892 -0.10073298
000230 63 7f cf bd e9 1c 12 bd eb 57 ff 3e 0d b9 11 3d
       -0.10131719 -0.035672102 0.49871764 0.03557687
000240 67 a1 20 be 28 b0 fe 3e 93 73 83 3e 01 0a 71 3e
       -0.1568657 0.49743772 0.25674114 0.23538972
000250 66 3e fc bd fe f8 d1 3f 57 06 0d 3e 94 c7 ee 3e
       -0.12316589 1.6404111 0.1377195 0.4663664
000260 40 4e a0 3e c4 42 97 3e 1a 7a 3f 3f 1e d2 c1 3c
       0.313097 0.29543126 0.7479569 0.023659762
000270 6c 6d 3e bf 9c 5e 9d bd 22 d0 b1 bd ec e2 08 bf
       -0.74385715 -0.07684061 -0.08682276 -0.53471255
000280 f6 4a 81 3f 16 05 29 be 62 56 89 3e f4 6a 8d 3d
       1.0101001 -0.16505846 0.26823717 0.06905165
000290 74 d8 9d 3d cc 0f e7 3e b0 93 e2 3d 5f 64 d6 3d
       0.07707301 0.4512924 0.110633254 0.10468363
0002a0 ce 89 92 be a9 3d a2 3f ce f8 e5 bd be 65 71 3d
       -0.28620762 1.2675067 -0.11229096 0.05893492
0002b0 2d ab 95 be 71 5e 8f be be af f0 3f 3d d2 bb 3e
       -0.2923216 -0.2800174 1.8803632 0.36683837
0002c0 c0 82 a8 be be 8c 91 3e 86 26 dc bd 2f 24 8a 3e
       -0.32912254 0.2842769 -0.10749535 0.2698073

fc3.bias f4 [9]
000000 77 36 0c 3e 7f c6 d4 bb 73 12 eb 3e f7 5a 28 3d
       0.13692652 -0.006493389 0.45912513 0.041102376
000010 3a e6 bc 3d 87 73 a1 bd 1a ec ba 3b 99 7f 5b bd
       0.092236 -0.07883363 0.005704415 -0.053588483
000020 fa 1a 2a bd
       -0.041529633
